last_brain.pth (torch, 6721 bytes, 12 tensors)

p1.weight f4 [30, 5]
0.1663761 0.588481 0.56299126 -0.2888654 0.18624647 -0.10427044 0.2897917 -0.16557762
-0.803485 0.75640947 -0.24244033 -0.43362638 -0.44168198 0.08700855 0.3277837 0.21562777
-0.4392466 0.23888429 0.20168316 -0.006523195 -0.093067914 0.29944354 0.013834953 -0.057486773
0.054930925 0.12211999 -0.4119842 -0.14567092 -0.103099704 -0.18571325 0.69749576 0.42487767
-0.2013041 0.5692348 -0.6496046 0.21729088 -0.12833044 0.17442203 -0.17685461 -0.31904906
-0.17032215 -0.036116276 -0.33546874 0.27348837 0.031099742 0.08273298 0.6237425 -0.043855358
-0.6712326 0.24292274 0.2819701 0.06551871 0.64272135 0.2808496 -0.3486353 -0.09784771
0.7124624 0.021755291 0.06048958 -0.15989971 0.6364349 0.5910621 0.14481895 0.022021888
-0.7450251 0.28616184 0.7413915 0.013480037 0.3030318 0.064400636 0.67558134 0.2439061
0.49825892 0.011370624 -0.29746988 0.57101905 -1.0934334 -0.05649413 0.10171379 0.44158372
0.5414143 0.04359624 0.30064747 -0.6232453 0.1130735 -0.17811783 0.58585477 -0.33070487
-0.30856827 0.7844729 0.32623002 0.5346093 -0.013700309 0.27136028 -0.04265361 -0.11920188
-1.0387278 -0.26177686 -0.73175395 0.6590934 -0.3019116 0.4116512 -0.39529777 0.26792756
0.3525329 0.04010445 -0.20335905 -0.1788488 0.11569542 -0.13965061 -0.17956227 0.00019013214
-0.23458406 -0.20259544 -0.19450784 0.809833 0.47239763 0.07368219 -0.3245266 0.5588191
-0.43298522 -0.27041337 0.43650576 0.03558368 -0.4251141 0.10053863 0.56383383 -0.85298795
-0.03781832 0.12218501 0.4985405 0.35284197 -0.12271765 -0.8800229 1.0720098 -0.4731315
-0.108685106 0.42797786 -0.64938796 0.11677864 0.59854597 0.7260455 0.63835555 0.26073223
-0.111571595 0.61359525 0.017203143 0.48188838 0.5640239 -0.26555404
00000000: 7f5e 2a3e b1a6 163f 3220 103f 2ae6 93be
00000010: 65b7 3e3e be8b d5bd 945f 943e 2e8d 29be
00000020: 31b1 4dbf 0da4 413f 4742 78be 4704 debe
00000030: 2424 e2be 8a31 b23d 44d3 a73e 87cd 5c3e
00000040: eee4 e0be 159e 743e 0886 4e3e 87c0 d5bb
00000050: 649a bebd aa50 993e 00ac 623c 4077 6bbd
00000060: 40ff 603d 0c1a fa3d 98ef d2be c22a 15be
00000070: f025 d3bd 9d2b 3ebe 158f 323f 9189 d93e
00000080: a922 4ebe 5fb9 113f 7d4c 26bf 8081 5e3e
00000090: 0e69 03be b09b 323e 6019 35be 665a a3be
000000a0: ee68 2ebe a9ee 13bd 8fc2 abbe ab06 8c3e
000000b0: e3c4 fe3c e96f a93d 97ad 1f3f ada1 33bd
000000c0: e6d5 2bbf bdc0 783e 635e 903e ac2e 863d
000000d0: 6389 243f 85cb 8f3e 5380 b2be 6164 c8bd
000000e0: f063 363f 2738 b23c ecc3 773d c0bc 23be
000000f0: 66ed 223f d94f 173f 6b4b 143e 3f67 b43c
00000100: f7b9 3ebf ce83 923e d5cb 3d3f 60db 5c3c
00000110: fc26 9b3e 7be4 833d e6f2 2c3f 85c2 793e
00000120: cb1b ff3e db4b 3a3c f94d 98be 4e2e 123f
00000130: a0f5 8bbf 6466 67bd 524f d03d 4317 e23e
00000140: 219a 0a3f f991 323d 77ee 993e 018d 1fbf
00000150: 1493 e73d 8564 36be 94fa 153f 2652 a9be
00000160: a9fc 9dbe 37d3 483f 9f07 a73e 28dc 083f
00000170: 4377 60bc bcef 8a3e 8db5 2ebd 1e20 f4bd
00000180: 08f5 84bf 9e07 86be 3a54 3bbf 58ba 283f
00000190: 2894 9abe f2c3 d23e 7864 cabe cd2d 893e
000001a0: 317f b43e 9044 243d 5b3d 50be 2424 37be
000001b0: b8f1 ec3d 9200 0fbe 2cdf 37be 355e 4739
000001c0: ce36 70be 2e75 4fbe 102d 47be 3751 4f3f
000001d0: 1ade f13e b0e6 963d 5a28 a6be c50e 0f3f
000001e0: 3db0 ddbe 9f73 8abe af7d df3e 31c0 113d
000001f0: 8ea8 d9be 32e7 cd3d 6a57 103f 6b5d 5abf
00000200: 62e7 1abd 223c fa3d b340 ff3e b4a7 b43e
00000210: 6453 fbbd 2e49 61bf 9e37 893f 4b3e f2be
00000220: 4c96 debd ea1f db3e 4a3e 26bf a429 ef3d
00000230: 4f3a 193f 1ede 393f 456b 233f b27e 853e
00000240: a67f e4bd 9414 1d3f 9bed 8c3c 13ba f63e
00000250: df63 103f b3f6 87be

p1.bias f4 [30]
-0.29896832 -0.00093888416 -0.21765421 0.42602962 -0.42638016 -0.08235196 -0.20941469 -0.41659832
0.69049466 -0.5820988 0.26719636 0.16137172 0.29543072 0.17392021 0.27523586 0.8659493
0.10274952 0.10868033 0.33655646 -0.31520206 -0.4080289 -0.39556992 -0.0206588 -0.40545893
0.54099923 0.09122407 -0.8008125 0.6884587 0.38535935 -0.12869798
00000000: 6012 99be 731f 76ba bfe0 5ebe 8e20 da3e
00000010: 804e dabe 25a8 a8bd ce70 56be 604c d5be
00000020: 42c4 303f 6d04 15bf f6cd 883e a13e 253e
00000030: b242 973e 2418 323e b7eb 8c3e daae 5d3f
00000040: 576e d23d cb93 de3d 2151 ac3e 2a62 a1be
00000050: 2ae9 d0be 2488 cabe a53c a9bc 5098 cfbe
00000060: ed7e 0a3f afd3 ba3d 0c02 4dbf d43e 303f
00000070: d24d c53e 67c9 03be

p2.weight f4 [3, 30]
-0.11306305 -0.2436666 0.02118997 0.39526173 -0.09347345 0.035695523 -0.50007325 0.029447049
0.35934708 -0.14008668 -0.16546799 -0.07338008 -0.32040626 -0.31152213 -0.04119295 0.85879797
-0.09199256 -0.056960568 -0.27018288 -0.54083455 -0.024955198 0.0062664 0.11102946 -0.3875927
0.50462836 -0.08939647 -1.1104286 0.3102236 -0.26458952 -0.2298692 -0.11069373 -0.57863176
0.07955238 0.10956791 -0.13769186 0.09099996 -0.26180223 0.037673518 0.09747408 -0.81939954
-0.26398563 -0.43796492 -0.25054044 -0.36566192 -0.11175555 1.1984316 0.43769646 -0.5336405
-0.22478253 -0.5263506 -0.16807881 0.17576542 -0.046300545 0.14832601 0.15866484 0.8474696
-1.1554154 0.6086925 -0.30906495 -0.12196246 -0.39123127 -0.47968832 -0.14478382 -0.20019676
0.1529237 0.08659296 0.14634348 0.17735603 0.6740243 -0.28176656 -0.35635668 -0.05962505
-0.16872396 0.049585555 -0.25385875 -0.24823105 -0.33025005 -0.29713953 -0.3220854 -1.1405079
-0.13237631 0.12167093 0.038046733 -0.3157539 0.7959799 1.1643994 -0.32943988 1.3063694
-0.0532423 -0.708555
00000000: 9a8d e7bd bd83 79be 9796 ad3c bf5f ca3e
00000010: 026f bfbd 7835 123d cd04 00bf f03a f13c
00000020: 57fc b73e e272 0fbe 7170 29be 4c48 96bd
00000030: 4a0c a4be d47f 9fbe f0b9 28bd 2fda 5b3f
00000040: 9866 bcbd 7c4f 69bd 6955 8abe 2274 0abf
00000050: d86e ccbc 6056 cd3b 6a63 e33d 8d72 c6be
00000060: 532f 013f 7f15 b7bd 8622 8ebf a1d5 9e3e
00000070: 4778 87be d562 6bbe 65b3 e2bd 3621 14bf
00000080: 5cec a23d 2465 e03d 18ff 0cbe 305e ba3d
00000090: f10a 86be 8c4f 1a3d 7ea0 c73d 2bc4 51bf
000000a0: 2029 87be f03c e0be d646 80be 0a38 bbbe
000000b0: 18e0 e4bd 3566 993f c019 e03e aa9c 08bf
000000c0: 642d 66be eabe 06bf da1c 2cbe dafb 333e
000000d0: a4a5 3dbd c6e2 173e 0979 223e c5f3 583f
000000e0: a7e4 93bf 46d3 1b3f c33d 9ebe 74c7 f9bd
000000f0: 774f c8be b599 f5be 3642 14be 6100 4dbe
00000100: 0898 1c3e a657 b13d 11db 153e d29c 353e
00000110: db8c 2c3f b543 90be 6274 b6be 6539 74bd
00000120: f9c5 2cbe 391a 4b3d c6f9 81be 4830 7ebe
00000130: 8916 a9be ac22 98be 61e8 a4be 2afc 91bf
00000140: a88d 07be 9c2e f93d e4d6 1b3d 7faa a1be
00000150: 57c5 4b3f 0a0b 953f 58ac a8be 1d37 a73f
00000160: 9914 5abd dc63 35bf

p2.bias f4 [3]
-0.11524995 -0.21396405 -0.02830983
00000000: 2a08 ecbd 6419 5bbe 04ea e7bc

exp_avg f4 [30, 5]
0.00048435177 -0.00015928275 0.00043938335 -0.00025517933 0.00025517933 0.00025463884 -0.00048797467 -0.00021374655
0.00047404208 -0.00047404208 0.0 0.0 0.0 -6e-45 6e-45 3.940036e-05
-0.00017092387 -6.574554e-05 -0.00079541065 0.00079541065 0.0 0.0 0.0 0.0
0.0 6e-45 0.0 0.0 -6e-45 6e-45 0.00049546384 0.0001528138
0.0007022938 0.00019737863 -0.00019737863 0.0 0.0 0.0 0.0 0.0
-0.0012709782 0.00039583334 -0.0006851642 -0.00019308354 0.00019308354 -0.00036588576 -0.00039037585 -0.00067132164
0.00023678131 -0.00023678131 0.00076237647 6.80635e-05 0.00022448873 0.00034452978 -0.00034452978 -0.00020832958
0.00013389465 -0.0005985949 0.00080342963 -0.00080342963 0.00056009146 0.00013752567 0.00042464983 0.00032500894
-0.00032500894 5.142288e-05 0.0001988223 -4.2005166e-05 0.0007494779 -0.0007494779 0.0005014729 6.5003987e-06
0.00018695154 0.00011875146 -0.00011875146 0.0009979515 0.0002955463 0.001966636 -0.0022494604 0.0022494604
0.0006779562 -0.00027267836 0.0012114639 -0.00092265767 0.00092265767 -0.00011444383 -0.00023732902 -0.0005697913
0.0004235161 -0.0004235161 0.00082583877 9.21702e-05 0.00037218857 0.0003536243 -0.0003536243 0.0020179816
-3.5057386e-07 0.0016696883 -0.0008897244 0.0008897244 0.0 6e-45 0.0 6e-45
-6e-45 0.0 0.0 0.0 0.0 0.0 6e-45 6e-45
0.0 -6e-45 6e-45 0.00083888526 -0.00016345664 0.0007450548 -0.00033877284 0.00033877284
-0.0011432706 0.0008441639 -0.0008094694 -0.00040917142 0.00040917142 -0.0012270513 -0.0006107725 0.0004390386
-0.00053957826 0.00053957826 -0.00081732456 -0.00061931816 -0.001707052 0.0016368974 -0.0016368974 -0.00037197
0.0015379689 -0.0005903174 0.00090235256 -0.00090235256 0.00023642508 0.0001537809 -9.075891e-05 0.000736736
-0.000736736 0.0015893998 -4.3809006e-05 0.0010916553 -0.0003231127 0.0003231127
00000000: 98f0 fd39 2305 27b9 095d e639 97c9 85b9
00000010: 97c9 8539 0c81 8539 dad6 ffb9 2721 60b9
00000020: da88 f839 da88 f8b9 0000 0000 0000 0000
00000030: 0000 0000 0400 0080 0400 0000 d041 2538
00000040: 073a 33b9 dee0 89b8 1b83 50ba 1b83 503a
00000050: 0000 0000 0000 0000 0000 0000 0000 0000
00000060: 0000 0000 0400 0000 0000 0000 0000 0000
00000070: 0400 0080 0400 0000 04e2 013a a43c 2039
00000080: 241a 383a 6cf7 4e39 6cf7 4eb9 0000 0000
00000090: 0000 0000 0000 0000 0000 0000 0000 0000
000000a0: f496 a6ba da87 cf39 979c 33ba 7876 4ab9
000000b0: 7876 4a39 5bd4 bfb9 5cab ccb9 a2fb 2fba
000000c0: 8048 7839 8048 78b9 38da 473a 50bd 8e38
000000d0: bc64 6b39 01a2 b439 01a2 b4b9 0c73 5ab9
000000e0: 1266 0c39 06eb 1cba 409d 523a 409d 52ba
000000f0: 1ad3 123a c434 1039 89a3 de39 f665 aa39
00000100: f665 aab9 e6ae 5738 f47a 5039 b42e 30b8
00000110: 9c78 443a 9c78 44ba 4775 033a 001e da36
00000120: 6c08 4439 340a f938 340a f9b8 b2cd 823a
00000130: 8ef3 9a39 ade2 003b af6b 13bb af6b 133b
00000140: dfb8 313a 45f6 8eb9 fcc9 9e3a 82de 71ba
00000150: 82de 713a 9001 f0b8 86db 78b9 0c5e 15ba
00000160: 5e0b de39 5e0b deb9 1a7d 583a 804b c138
00000170: 4e22 c339 a666 b939 a666 b9b9 1d40 043b
00000180: 8136 bcb4 71d9 da3a 653c 69ba 653c 693a
00000190: 0000 0000 0400 0000 0000 0000 0400 0000
000001a0: 0400 0080 0000 0000 0000 0000 0000 0000
000001b0: 0000 0000 0000 0000 0400 0000 0400 0000
000001c0: 0000 0000 0400 0080 0400 0000 a3e8 5b3a
000001d0: 8f65 2bb9 c84f 433a 529d b1b9 529d b139
000001e0: ccd9 95ba e14a 5d3a 9232 54ba 0f86 d6b9
000001f0: 0f86 d639 02d5 a0ba 401c 20ba c32e e639
00000200: 7c72 0dba 7c72 0d3a b941 56ba bd59 22ba
00000210: 29bf dfba 2a8d d63a 2a8d d6ba f804 c3b9
00000220: ac95 c93a 88bf 1aba db8b 6c3a db8b 6cba
00000230: e0e8 7739 3f40 2139 d255 beb8 8421 413a
00000240: 8421 41ba 6853 d03a 90bf 37b8 e015 8f3a
00000250: 7467 a9b9 7467 a939

exp_avg_sq f4 [30, 5]
1.9334278e-05 1.7561257e-05 1.7763163e-05 1.2311391e-05 1.2311391e-05 2.4193483e-05 1.7237422e-05 2.823281e-05
1.3358447e-05 1.3358447e-05 0.0 0.0 0.0 1.0658284e-08 1.0658284e-08 1.5838808e-05
4.708984e-06 1.9586258e-05 3.686017e-06 3.686017e-06 0.0 0.0 0.0 0.0
0.0 2.2267996e-11 0.0 0.0 1.7372758e-11 1.7372758e-11 1.0773049e-05 3.1009338e-06
1.03030125e-05 1.8494106e-06 1.8494106e-06 0.0 0.0 0.0 0.0 0.0
4.578782e-05 3.7681693e-05 4.219613e-05 1.685525e-05 1.685525e-05 1.0264429e-05 7.5022717e-06 1.3902487e-05
7.297364e-06 7.297364e-06 2.8745562e-05 2.5442288e-05 2.8145416e-05 7.2186613e-06 7.2186613e-06 4.747401e-06
2.9206328e-06 5.5520645e-06 2.1688456e-06 2.1688456e-06 2.0861522e-05 1.2215363e-05 2.299064e-05 3.01546e-06
3.01546e-06 1.735354e-05 8.6224745e-06 1.9812327e-05 5.8926203e-06 5.8926203e-06 9.38307e-06 8.901899e-06
8.460133e-06 4.76403e-06 4.76403e-06 8.2362356e-05 1.5011585e-05 0.000116504016 2.3911114e-05 2.3911114e-05
1.5025417e-05 1.1550104e-05 1.6121223e-05 6.900722e-06 6.900722e-06 1.1082928e-05 8.990741e-06 1.1698252e-05
5.756182e-06 5.756182e-06 3.7203707e-05 3.0340387e-05 3.7720612e-05 8.835855e-06 8.835855e-06 8.818571e-06
6.0463475e-07 1.1908978e-05 1.3418344e-05 1.3418344e-05 0.0 2.5936503e-10 0.0 1.9686643e-10
1.9686643e-10 0.0 0.0 0.0 0.0 0.0 2.0028168e-11 1.2765598e-11
0.0 1.3065979e-07 1.3065979e-07 2.6038744e-05 1.2422221e-05 2.5944117e-05 8.26935e-06 8.26935e-06
5.2780495e-05 3.4011322e-05 6.23805e-05 1.9284165e-05 1.9284165e-05 5.6831e-05 6.153438e-05 3.25806e-05
3.7862592e-05 3.7862592e-05 3.8506692e-05 1.4018487e-05 5.2233394e-05 2.2053351e-05 2.2053351e-05 0.00012861623
0.00011258757 0.00014383053 6.3001695e-05 6.3001695e-05 1.7061082e-05 1.0414681e-05 1.9795265e-05 4.6641458e-06
4.6641458e-06 5.283496e-05 4.8925063e-05 4.8563397e-05 2.0395311e-05 2.0395311e-05
00000000: 0c30 a237 8350 9337 1a02 9537 068d 4e37
00000010: 068d 4e37 1cf3 ca37 1599 9037 7fd5 ec37
00000020: 181e 6037 181e 6037 0000 0000 0000 0000
00000030: 0000 0000 a11b 3732 a11b 3732 95dd 8437
00000040: dd01 9e36 2b4d a437 4a5d 7736 4a5d 7736
00000050: 0000 0000 0000 0000 0000 0000 0000 0000
00000060: 0000 0000 12df c32d 0000 0000 0000 0000
00000070: f9cf 982d f9cf 982d e5bd 3437 a319 5036
00000080: 1adb 2c37 4439 f835 4439 f835 0000 0000
00000090: 0000 0000 0000 0000 0000 0000 0000 0000
000000a0: 4c0c 4038 690c 1e38 c0fb 3038 6064 8d37
000000b0: 6064 8d37 6335 2c37 06bc fb36 ba3e 6937
000000c0: e1db f436 e1db f436 a022 f137 e66c d537
000000d0: d219 ec37 d437 f236 d437 f236 dd4b 9f36
000000e0: 1700 4436 df4b ba36 7c8c 1136 7c8c 1136
000000f0: c7ff ae37 96f0 4c37 06dc c037 355d 4a36
00000100: 355d 4a36 7292 9137 3fa9 1037 a632 a637
00000110: 39b9 c536 39b9 c536 fb6b 1d37 5d59 1537
00000120: ffef 0d37 b5da 9f36 b5da 9f36 f4b9 ac38
00000130: 44da 7b37 9e53 f438 ba94 c837 ba94 c837
00000140: ad15 7c37 52c7 4137 103c 8737 c08c e736
00000150: c08c e736 d0f0 3937 f0d6 1637 9c43 4437
00000160: 3a25 c136 3a25 c136 2d0b 1c38 7c83 fe37
00000170: 3336 1e38 b53d 1437 b53d 1437 79f3 1337
00000180: 2f4e 2235 accc 4737 591f 6137 591f 6137
00000190: 0000 0000 6296 8e2f 0000 0000 f974 582f
000001a0: f974 582f 0000 0000 0000 0000 0000 0000
000001b0: 0000 0000 0000 0000 6d2b b02d 2493 602d
000001c0: 0000 0000 7d4b 0c34 7d4b 0c34 c76d da37
000001d0: 0869 5037 91a2 d937 96bc 0a37 96bc 0a37
000001e0: a060 5d38 61a7 0e38 47d2 8238 6ec4 a137
000001f0: 6ec4 a137 d25d 6e38 050c 8138 27a7 0838
00000200: a6ce 1e38 a6ce 1e38 3f82 2138 f130 6b37
00000210: 2e15 5b38 36ff b837 36ff b837 28dd 0639
00000220: fe1c ec38 37d1 1639 c71f 8438 c71f 8438
00000230: 651e 8f37 b7ba 2e37 020e a637 b580 9c36
00000240: b580 9c36 1b9b 5d38 e334 4d38 8db0 4b38
00000250: 9916 ab37 9916 ab37

exp_avg f4 [30]
0.00086633314 -0.0006328204 6e-45 0.0009047302 0.0 6e-45 0.000636838 0.0
-0.0004432713 -0.00022359108 0.00036396307 -0.00051497924 0.00024193779 -0.0004715549 0.00021675503 0.0033372783
0.0008724004 -0.00031448604 0.00016183424 0.0011491596 6e-45 0.0 6e-45 0.00071731023
1.2987643e-05 -0.0021385816 -0.0030616892 -0.00021482399 -0.00043448404 0.0017033605
00000000: a21a 633a dce3 25ba 0400 0000 6a2b 6d3a
00000010: 0000 0000 0400 0000 7af1 263a 0000 0000
00000020: de66 e8b9 c673 6ab9 4cd2 be39 acff 06ba
00000030: aeb0 7d39 073b f7b9 bc48 6339 3db6 5a3b
00000040: cdb1 643a 9ae1 a4b9 0cb2 2939 669f 963a
00000050: 0400 0000 0000 0000 0400 0000 e009 3c3a
00000060: 80e5 5937 7227 0cbb 9fa6 48bb 6042 61b9
00000070: 76cb e3b9 4b43 df3a

exp_avg_sq f4 [30]
2.354764e-05 3.3538054e-05 1.49010475e-08 2.7499447e-05 0.0 2.2267996e-11 1.1021132e-05 0.0
6.7747605e-05 1.6179456e-05 3.3964385e-05 7.2129124e-06 2.7447491e-05 2.500148e-05 1.1346351e-05 0.00015970772
2.1312708e-05 1.5432997e-05 4.7811947e-05 2.6085929e-05 2.5936503e-10 0.0 1.7967652e-07 3.13855e-05
8.6293316e-05 8.1678794e-05 6.131081e-05 0.00017609053 2.4634795e-05 6.142772e-05
00000000: 2c88 c537 36ab 0c38 80ff 7f32 9dae e637
00000010: 0000 0000 12df c32d 67e7 3837 0000 0000
00000020: b813 8e38 1eb9 8737 fb74 0e38 7206 f236
00000030: 0a3f e637 45ba d137 355c 3e37 3777 2739
00000040: b1c8 b237 1c76 8137 b089 4838 1bd3 da37
00000050: 6296 8e2f 0000 0000 1bed 4034 eda3 0338
00000060: 5ff8 b438 f84a ab38 fe93 8038 f1a4 3839
00000070: d2a6 ce37 c2d2 8038

exp_avg f4 [3, 30]
-0.00072672253 0.0013968562 6e-45 -0.00017865107 0.0 0.0 -0.00036972758 0.0
0.0010255981 -9.872211e-05 -0.0014111804 -0.00019654994 -0.0013322319 -0.0006109948 -0.0014742004 0.0010250141
-7.4253505e-05 0.0014240277 -0.00049263315 0.00065196183 0.0 0.0 6e-45 -0.000582289
2.6077032e-06 0.0003476692 0.0001924392 0.0015017898 -0.0016641719 -0.0009367175 0.0010733235 0.0013400884
0.0 0.00065761316 0.0 0.0 -0.001144993 0.0 -0.00038137307 0.00024130085
0.00030447042 -0.00046263952 -0.0005516607 -0.0002813793 0.0008069071 0.0018240835 0.002055163 0.0006597859
-0.0002195276 0.0003308839 0.0 0.0 0.0 0.0011574895 0.0002813009 -4.196577e-05
0.0008951848 0.0022139852 0.0008406592 -0.0003085369 -0.00034143653 -0.0005165278 0.0 -0.0014326278
0.0 6e-45 -0.00076223037 0.0 -0.00036896457 0.0005026825 -0.0014763218 8.6252985e-05
-0.001495206 -0.0006250141 -0.0021843498 -0.0030161617 -0.001762073 -3.4754543e-05 -0.00093252206 -0.0006425528
-6e-45 0.0 6e-45 -0.0008453776 -0.00038343327 -0.00074040523 -0.0003852641 -0.0022146902
-0.0022727244 -0.0010807338
00000000: 8681 3eba b716 b73a 0400 0000 4854 3bb9
00000010: 0000 0000 0000 0000 ffd7 c1b9 0000 0000
00000020: 5d6d 863a 0709 cfb8 5bf7 b8ba f918 4eb9
00000030: 499e aeba 2b2b 20ba f539 c1ba c459 863a
00000040: 8cb8 9bb8 71a6 ba3a 0d24 01ba 6be8 2a3a
00000050: 0000 0000 0000 0000 0400 0000 c1a4 18ba
00000060: 0000 2f36 5f47 b639 81c9 4939 b4d7 c43a
00000070: 5820 daba 0c8e 75ba c3ae 8c3a e8a5 af3a
00000080: 0000 0000 ac63 2c3a 0000 0000 0000 0000
00000090: 9713 96ba 0000 0000 07f3 c7b9 b405 7d39
000000a0: 54a1 9f39 6d8e f2b9 539d 10ba 1786 93b9
000000b0: 9e86 533a 1616 ef3a eaaf 063b 7bf5 2c3a
000000c0: fe30 66b9 7c7a ad39 0000 0000 0000 0000
000000d0: 0000 0000 e7b6 973a 917b 9339 6704 30b8
000000e0: d6aa 6a3a 8218 113b af5f 5c3a 1fc3 a1b9
000000f0: d602 b3b9 9867 07ba 0000 0000 03c7 bbba
00000100: 0000 0000 0400 0000 6ad0 47ba 0000 0000
00000110: 9671 c1b9 74c6 033a 2481 c1ba b8e2 b438
00000120: cafa c3ba fcd7 23ba 4f27 0fbb ccaa 45bb
00000130: 5cf5 e6ba 68c5 11b8 7f74 74ba fd70 28ba
00000140: 0400 0080 0000 0000 0400 0000 559c 5dba
00000150: 8b07 c9b9 c117 42ba 46fd c9b9 5624 11bb
00000160: fdf1 14bb 69a7 8dba

exp_avg_sq f4 [3, 30]
7.5581775e-05 2.7410348e-05 4.494319e-08 6.902289e-05 0.0 0.0 5.571964e-06 0.0
1.8515073e-05 8.275859e-06 0.00013664202 1.16769315e-05 0.00011638281 4.0782845e-05 0.00025502325 0.00019427342
0.000103521066 2.5321404e-05 7.5095624e-05 4.1684348e-06 0.0 0.0 1.4221334e-07 9.240844e-05
4.455117e-05 1.3230225e-06 8.854573e-06 0.00010281441 0.00039008894 6.322689e-05 6.5670305e-05 1.4435573e-05
0.0 1.5090735e-05 0.0 0.0 5.2949035e-05 0.0 4.5419565e-06 4.5650427e-06
0.000105018655 1.0625907e-05 0.0001851026 6.010349e-05 0.0002333846 4.0306844e-05 3.5479683e-05 7.750004e-06
0.00011235649 3.75787e-06 0.0 0.0 0.0 2.8815133e-05 9.160548e-06 2.3833908e-07
9.765524e-06 3.827891e-05 0.00040384158 4.6334484e-05 0.00018169849 9.6118405e-05 0.0 2.213473e-05
0.0 1.268185e-11 7.798344e-05 0.0 2.0191763e-05 5.4823504e-05 0.00013646168 7.6277094e-05
0.00027434085 0.00016124293 0.00032148248 5.3013682e-05 0.00015063325 8.341545e-05 0.00015732742 6.284831e-06
6.388382e-11 0.0 1.6920378e-11 0.0002761712 1.4097904e-05 1.1033492e-05 8.882909e-05 7.938444e-05
0.000695776 6.947584e-05
00000000: a881 9e38 46ef e537 8f07 4133 62c0 9038
00000010: 0000 0000 0000 0000 cef6 ba36 0000 0000
00000020: d150 9b37 8bd8 0a37 9047 0f39 0ae8 4337
00000030: 8c12 f438 3f0e 2b38 a4b4 8539 e0b5 4b39
00000040: 7319 d938 4d69 d437 a87c 9d38 95de 8b36
00000050: 0000 0000 0000 0000 4eb3 1834 67cb c138
00000060: 74dc 3a38 b592 b135 1a8e 1437 119e d738
00000070: da84 cc39 ae98 8438 7ab8 8938 5030 7237
00000080: 0000 0000 372e 7d37 0000 0000 0000 0000
00000090: 9815 5e38 0000 0000 1c67 9836 6b2d 9936
000000a0: 763d dc38 ec45 3237 1a18 4239 a217 7c38
000000b0: b4b8 7439 250f 2938 05d0 1438 0406 0237
000000c0: eea0 eb38 b72f 7c36 0000 0000 0000 0000
000000d0: 0000 0000 07b8 f137 41b0 1937 26ea 7f34
000000e0: 9bd6 2337 ab8d 2038 b3ba d339 4657 4238
000000f0: 5186 3e39 2d93 c938 0000 0000 f9ad b937
00000100: 0000 0000 fa19 5f2d 0a8b a338 0000 0000
00000110: 7b61 a937 4af2 6538 2717 0f39 f4f6 9f38
00000120: 68d5 8f39 5213 2939 a68c a839 025b 5e38
00000130: 4ef3 1d39 54ef ae38 42f8 2439 4ae2 d236
00000140: 657b 8c2e 0000 0000 4ed5 942d 12cb 9039
00000150: 0986 6c37 7d1c 3937 c149 ba38 327b a638
00000160: bd64 363a 8fb3 9138

exp_avg f4 [3]
0.0010242835 0.0008816781 -0.0019642403
00000000: 4041 863a 6a20 673a 7cba 00bb

exp_avg_sq f4 [3]
0.0002132159 0.00011268554 0.00020243203
00000000: b592 5f39 9751 ec38 ef43 5439
